checkpoint/10-12-2020--13-18-54/best/weights.pkl (torch_old, 3988 bytes, 11 tensors)

pre_processing.0.weight f4 [3, 1, 3, 3]
-0.20713836 0.19820002 0.11868248 -0.26977068 -0.14619093 0.055985183 0.10664427 -0.052921783
-0.12997529 0.1452356 -0.17573884 0.04780611 -0.14503995 -0.17642176 -0.25189513 -0.16932096
-0.06610015 0.08190382 -0.13694187 0.022994213 0.29024002 0.11670186 -0.20303586 -0.10231532
-0.12059891 -0.16224934 -0.12001965
00000000: 141c 54be f2f4 4a3e cd0f f33d 621f 8abe
00000010: 13b3 15be b850 653d 5068 da3d 83c4 58bd
00000020: 3e18 05be a4b8 143e e2f4 33be 57d0 433d
00000030: 5a85 14be e8a7 34be 66f8 80be 7962 2dbe
00000040: 845f 87bd 31bd a73d 7d3a 0cbe 5c5e bc3c
00000050: 579a 943e 6301 ef3d a2e8 4fbe b28a d1bd
00000060: 90fc f6bd b124 26be ddcc f5bd

pre_processing.1.weight f4 [3]
1.0020128 1.0049559 0.99801034
00000000: f541 803f 65a2 803f 9b7d 7f3f

pre_processing.1.bias f4 [3]
0.013137742 0.009288194 -0.0043516946
00000000: af3f 573c 822d 183c a998 8ebb

pre_processing.1.running_mean f4 [3]
-0.004277408 -0.009210609 -0.006219092
00000000: 8029 8cbb 18e8 16bc 86c9 cbbb

pre_processing.1.running_var f4 [3]
0.11577979 0.43258366 0.20138374
00000000: f41d ed3d 9b7b dd3e 8a37 4e3e

pre_processing.1.num_batches_tracked f4 [5]
0.29217705 0.29217705 0.29217705 -0.2960138 -0.2960138
00000000: 3b98 953e 3b98 953e 3b98 953e 1f8f 97be
00000010: 1f8f 97be

pre_processing.1.num_batches_tracked f4 [4]
-0.28681126 0.19836031 0.291625 -0.25095728
00000000: edd8 92be f71e 4b3e df4f 953e 797d 80be

pre_processing.1.num_batches_tracked f4 [4]
-0.28681126 0.19836031 0.291625 -0.25095728
00000000: edd8 92be f71e 4b3e df4f 953e 797d 80be

pre_processing.1.num_batches_tracked f4 [4]
-0.28681126 0.19836031 0.291625 -0.25095728
00000000: edd8 92be f71e 4b3e df4f 953e 797d 80be

classifer.weight f4 [10, 3]
-0.36359164 0.46649587 -0.3536387 0.27211216 0.56510305 0.11448885 -0.37995437 -0.09658677
0.40454122 0.07737112 -0.022446133 0.50091684 0.3408903 0.08434652 -0.37522742 -0.34075764
0.18281133 -0.5064394 0.44120842 0.29304546 -0.17349425 0.5643998 0.53766257 -0.30495116
-0.5536388 -0.37806675 -0.43458688 0.20680931 0.4776616 0.098958775
00000000: af28 babe 8cd8 ee3e 2210 b5be 4952 8b3e
00000010: 98aa 103f 2179 ea3d 6189 c2be 49cf c5bd
00000020: 0720 cf3e c074 9e3d f4e0 b7bc 163c 003f
00000030: 2c89 ae3e debd ac3d cf1d c0be c977 aebe
00000040: e532 3b3e 03a6 01bf 12e6 e13e 0e0a 963e
00000050: 7aa8 31be 817c 103f 41a4 093f 8f22 9cbe
00000060: 46bb 0dbf f791 c1be 2c82 debe d2c5 533e
00000070: 1090 f43e e6aa ca3d

classifer.bias f4 [10]
0.03719068 0.2205216 0.54976994 0.41863465 -0.3619764 -0.0145343095 -0.37809405 -0.0830204
-0.42512256 -0.53321314
00000000: 4155 183d 6ad0 613e b9bd 0c3f 4857 d63e
00000010: f854 b9be 5021 6ebc 8b95 c1be 9906 aabd
00000020: aaa9 d9be a880 08bf
